TE_Model.pt (torch, 290379 bytes, 13 tensors)

gcn_layers.0.fc.weight f4 [64, 10]
0	0xbd8fe854	-0.07026735
1	0xbdbe100c	-0.092804044
2	0x3e9e222a	0.3088544
3	0x3d908474	0.070565134
4	0x3d67606f	0.05648845
5	0x3cd3820d	0.025818849
6	0x3e763774	0.24044591
7	0x3e1da788	0.1539594
8	0x3d065242	0.03279329
9	0x3e08e0ca	0.13367
10	0xbe251f85	-0.16125305
11	0xbe8e5223	-0.2779704
12	0x3ddf86b8	0.109143674
13	0xbe0af8a7	-0.13571416
14	0xbdeac7b2	-0.1146387
15	0x3e871101	0.2638016
16	0xbdc5681a	-0.096389964
17	0xbd9a7c82	-0.07543279
18	0xbe41f23d	-0.18940063
19	0xbe8cabf4	-0.2747494
20	0xbe8f1083	-0.27942285
21	0x3cdb2d90	0.026755124
22	0xbe893ef7	-0.2680585
23	0x3e85b4d1	0.26114514
24	0x3e4f58c8	0.20248711
25	0x3db6f415	0.08933274
26	0x3df701e1	0.12060905
27	0x3e73c881	0.23806955
28	0x3c405d85	0.011741047
29	0xbb9da294	-0.0048106406
30	0xbba7f5c0	-0.005125731
31	0x3d1ad110	0.037797034
32	0x3e8f4073	0.27978858
33	0xbe9b3882	-0.3031655
34	0x3e072ab0	0.13199878
35	0xbe96b487	-0.29434606
36	0xbd931fcc	-0.07183799
37	0x3e36baec	0.17844743
38	0x3e1ac200	0.15113068
39	0xbe9b5d74	-0.30344737
40	0xbd8ed5e0	-0.06974387
41	0x3e7d719b	0.24750368
42	0xbe5bcfbc	-0.21465963
43	0x3e12ef2c	0.1434905
44	0x3c8fc2f1	0.01754901
45	0x3d24e619	0.0402585
46	0xbe2ca62e	-0.16860268
47	0x3e8642fa	0.26222974
48	0xbe458df0	-0.19292426
49	0x3d8d0233	0.06885185
50	0x3e3290e8	0.1743809
51	0xbe1ddc7c	-0.1541614
52	0xbdc1c6de	-0.09461759
53	0xbd4956a0	-0.049154878
54	0xbbb72a40	-0.0055897534
55	0xbe3d7f42	-0.18505576
56	0xbe2dc420	-0.16969347
57	0x3e676772	0.22598055
58	0xbe9a8b45	-0.3018438
59	0x3e672956	0.22574362
60	0x3c998250	0.018738896
61	0x3de18294	0.11011234
62	0xbe215664	-0.15755612
63	0x3db344d8	0.08753365
64	0xbe9b4298	-0.30324244
65	0xbe9ce76e	-0.30645317
66	0xbe88c053	-0.26709232
67	0x3db24bd4	0.08705869
68	0x3d696df8	0.05698964
69	0x3e313296	0.17304453
70	0x3d73c4c0	0.059513807
71	0x3e6d8856	0.2319654
72	0xbe36d37d	-0.17854114
73	0xbe87abca	-0.26498252
74	0xbe1461b9	-0.14490403
75	0xbe426167	-0.18982469
76	0xbe7d9cd2	-0.24766853
77	0x3dcb67a4	0.09931877
78	0xbcfb7670	-0.030696124
79	0x3cd1ed10	0.025625736
80	0x3c8975e0	0.01677984
81	0xbe5987d4	-0.2124322
82	0xbe78a374	-0.24281102
83	0xbe8a23a8	-0.2698033
84	0x3dadb5d0	0.084819436
85	0x3d818ea0	0.06326032
86	0x3dcfacac	0.101403564
87	0x3e8a816b	0.27051863
88	0xbe04919a	-0.12946168
89	0x3e15d022	0.14630178
90	0xbe1e29dd	-0.15445657
91	0x3dadeee9	0.08492834
92	0x3e8aa660	0.2708006
93	0x3def67ae	0.11689697
94	0xbea0a4e9	-0.31375816
95	0xbdec3268	-0.11533052
96	0x3ea13031	0.3148208
97	0x3e617c4d	0.22020073
98	0xbe84b28b	-0.25917467
99	0x3d81db85	0.06340698
100	0x3db5df98	0.08880538
101	0x3dc5eb2c	0.09663996
102	0xbe0bad5e	-0.13640353
103	0xbe670b38	-0.22562873
104	0xbe14d815	-0.14535554
105	0x3e872aaf	0.26399752
106	0xbd89f132	-0.067354575
107	0xbda64f72	-0.08120622
108	0x3e48b21e	0.19599196
109	0xbd792eb0	-0.06083554
110	0x3acb6900	0.0015518963
111	0x3e89963b	0.2687243
112	0xbdb58ab0	-0.08864343
113	0xbe8736d6	-0.26409024
114	0x3b306800	0.0026917458
115	0xbe86238c	-0.26198995
116	0xbdf50f06	-0.11965756
117	0x3c86e7e0	0.016467988
118	0xbdda5bd2	-0.106620446
119	0xbe165fff	-0.14685057
120	0x3ceb5240	0.028725743
121	0xbd5e0138	-0.05420038
122	0xbe8cdb83	-0.27511224
123	0x3d4e49e8	0.05036345
124	0xbe1b9368	-0.1519295
125	0xbe8e90a9	-0.27844742
126	0x3e699ece	0.22814485
127	0x3df43784	0.11924651
128	0x3e2a3f12	0.16625622
129	0xbde8b556	-0.11362712
130	0xbe980ad1	-0.29695752
131	0x3e19e9b8	0.15030563
132	0xbe99ac92	-0.30014473
133	0xbe78bc1e	-0.24290511
134	0x3e3c24aa	0.18373361
135	0xbe8131d6	-0.25233334
136	0xbe5eb968	-0.21750414
137	0xbe9d4828	-0.30719113
138	0xbe0f316b	-0.13983695
139	0x3e93dc49	0.28879002
140	0xbe8b3c0c	-0.2719425
141	0x3ddb8ca0	0.107201815
142	0xbe93cd67	-0.28867647
143	0xbbc59e80	-0.0060308576
144	0xbe9b4408	-0.3032534
145	0x3e503196	0.20331416
146	0xbe4df0a0	-0.20111322
147	0x3e780f46	0.24224576
148	0xbe10d02c	-0.14141911
149	0xbe33468f	-0.17507385
150	0xbe533e5c	-0.20629257
151	0x3bd0b9c0	0.0063697994
152	0xbe48dc7e	-0.19615361
153	0xbd20a8c0	-0.039223433
154	0xbe84f29b	-0.25966343
155	0xbdae0686	-0.08497338
156	0x3ceb66c0	0.028735518
157	0x3e408152	0.18799332
158	0xbd905f5c	-0.07049438
159	0x3d651c78	0.055935353
160	0x3e091765	0.1338783
161	0x3e9ea358	0.30983996
162	0x3da4e561	0.08051563
163	0x3dfe51ec	0.12417969
164	0xbe4e6496	-0.20155558
165	0xbe5312ba	-0.20612612
166	0x3e518c04	0.20463568
167	0xbc195cb6	-0.009360483
168	0x3ea33a34	0.31880343
169	0x3df44d32	0.11928786
170	0x3d4decb4	0.050274566
171	0x3d89ccbf	0.06728505
172	0xbda99ccf	-0.08281862
173	0x3e6aec2f	0.2294166
174	0x3e9d0c33	0.3067337
175	0xbd6c8abd	-0.0577495
176	0x3d9a65b9	0.07538933
177	0xbe3ec190	-0.18628526
178	0xbe489c32	-0.19590834
179	0xbd73bb11	-0.059504572
180	0x3e5d8fa0	0.2163682
181	0xbdaa0607	-0.08301931
182	0x3e947082	0.28992087
183	0x3d9fa81a	0.07795735
184	0xbd3f1e70	-0.046659887
185	0x3e202eeb	0.15642898
186	0x3d997ec2	0.0749488
187	0xbe056321	-0.13026096
188	0x3e69cd91	0.22832324
189	0xbe94f903	-0.2909623
190	0x3e138734	0.14407045
191	0xbe84fe89	-0.25975445
192	0x3e956c6f	0.2918429
193	0x3e953a30	0.29145956
194	0xbe0b56e8	-0.13607371
195	0x3e838c8a	0.2569316
196	0xbdb2d263	-0.08731534
197	0x3d0b9fbb	0.034087878
198	0xbdfc0681	-0.12305928
199	0xbe7c478f	-0.24636672
200	0xbe49c602	-0.1970444
201	0xbe5ee7e2	-0.21768144
202	0x3e8f2b07	0.27962515
203	0x3e0e77f0	0.1391294
204	0xbe8a1ccf	-0.26975104
205	0xbe00e823	-0.12588553
206	0xbe809cb7	-0.25119564
207	0x3e9fcf45	0.31212822
208	0xbe54d24f	-0.20783351
209	0x3e1eb9ce	0.15500566
210	0x3dc19184	0.09451583
211	0xbdc7674e	-0.09736501
212	0x3e6a79ba	0.22897997
213	0xbda46d14	-0.080286175
214	0xbbc367c0	-0.0059632957
215	0x3dae0fb8	0.08499092
216	0x3e3405b8	0.17580307
217	0x3d04b728	0.032401234
218	0xbe955817	-0.2916877
219	0xbe8d6127	-0.27613184
220	0xbe45229a	-0.1925148
221	0x3e1cbdac	0.15306729
222	0x3d423190	0.047410548
223	0x3df61e59	0.12017507
224	0x3e04dd8f	0.12975143
225	0x3e949217	0.29017708
226	0xbe54124e	-0.20710108
227	0xbe838726	-0.25689048
228	0xbda0f9d9	-0.07860155
229	0x3e3645b8	0.17800033
230	0xbe41e20d	-0.18933888
231	0x3dcd00cc	0.100099176
232	0x3db12533	0.08649673
233	0x3e583579	0.21114148
234	0xbe33e16c	-0.1756646
235	0xbe5f2131	-0.21790005
236	0x3e816ce9	0.25278404
237	0xbd228bd7	-0.039684143
238	0xbe048057	-0.12939583
239	0x3d724851	0.059150998
240	0xbe0aee49	-0.13567461
241	0xbe4870a4	-0.19574219
242	0x3d413328	0.047167927
243	0x3e1f46be	0.1555433
244	0x3d6d8658	0.05798945
245	0xbe82f632	-0.25578457
246	0x3c5fb580	0.013654113
247	0x3e00d216	0.12580141
248	0xbe7ff8bf	-0.24997233
249	0xbdf67f1c	-0.12035963
250	0xbdb6deab	-0.08929189
251	0xbe5bfe6c	-0.21483773
252	0x3e278ccd	0.16362305
253	0x3e8f8911	0.2803426
254	0x3e423312	0.18964794
255	0xbe084d63	-0.1331077

gcn_layers.0.fc.bias f4 [64]
0	0x3e8d25c5	0.27567878
1	0x3e902b73	0.2815815
2	0x3dd0ac4c	0.10189113
3	0xbe9bdcc9	-0.30441883
4	0xbd9ac817	-0.07557695
5	0xbdfd80f0	-0.123781085
6	0xbc94c2b0	-0.01815924
7	0xbe37e5c4	-0.17958742
8	0xbe06f7f4	-0.13180524
9	0x3e82233d	0.2541751
10	0xbe198ec4	-0.14995867
11	0xbcc70bc0	-0.024297595
12	0x3e6a10b2	0.22857931
13	0x3cf5ae40	0.029990315
14	0x3e1f9520	0.1558423
15	0x3d3e4368	0.046451002
16	0x3e3ef876	0.18649468
17	0x3e04e6de	0.12978694
18	0x3e441f17	0.19152485
19	0x3db2abd0	0.08724177
20	0xbe9b00dc	-0.30274093
21	0x3dd6e1f8	0.10492319
22	0x3bb0af47	0.0053919884
23	0x3d3e11b2	0.046403594
24	0xbd8ce01e	-0.068786845
25	0x3dd4c8e8	0.10389882
26	0x3e81bc3c	0.25338924
27	0xbe31e68f	-0.17373107
28	0xbe24e74f	-0.16103862
29	0xbd200750	-0.039069474
30	0xbe8f7939	-0.28022173
31	0x3e29747a	0.16548339
32	0xbe44840d	-0.19190998
33	0xbdc25812	-0.09489454
34	0xbe314851	-0.17312743
35	0x3e049bde	0.12950084
36	0xbe33c8ea	-0.17557111
37	0x3d6ad0c3	0.057327997
38	0xbd378ef0	-0.04481405
39	0xbdf38dfa	-0.11892314
40	0xbdf60e06	-0.120143935
41	0xbe77be0e	-0.24193594
42	0xbdb86564	-0.09003714
43	0xbdea6b8c	-0.11446294
44	0xbc9f74cf	-0.019464878
45	0xbda444d5	-0.08020941
46	0xbe88b32f	-0.26699206
47	0x3e9d22e1	0.30690673
48	0xbe29a918	-0.1656841
49	0x3e4a650a	0.19765106
50	0xbd2d9660	-0.042379737
51	0xbe7f9e58	-0.24962747
52	0xbe57c0bc	-0.21069616
53	0x3e5f8e46	0.21831617
54	0xbe7fd68d	-0.24984188
55	0x3d0acf08	0.033888847
56	0x3e86b151	0.26307157
57	0xbe984c6f	-0.29745814
58	0x3e6b2c36	0.22966084
59	0xbe89b537	-0.26896068
60	0xbe8c497f	-0.27399823
61	0xbdb4d4cc	-0.0882965
62	0xbea41d02	-0.3205338
63	0x3e138c60	0.14409018

gcn_layers.1.fc.weight f4 [64, 64]
0	0x3def2135	0.116762556
1	0xbd4ffce4	-0.050778285
2	0x3db6932a	0.08914788
3	0x3d9407da	0.0722806
4	0xbd3ca931	-0.04605979
5	0xbdebc1c8	-0.1151157
6	0x3d78ef2c	0.060774967
7	0x3d70f15c	0.05882393
8	0x3dcc3cc4	0.099725276
9	0xbdf00a73	-0.11720743
10	0x3db3afd4	0.08773771
11	0xbcfae0c0	-0.030624747
12	0x3da616a0	0.08109784
13	0xbddb9894	-0.10722461
14	0x3c925328	0.017861918
15	0xbccafe08	-0.024779335
16	0x3ce78a61	0.028264226
17	0x3cb29193	0.02179793
18	0x3dd75113	0.105135106
19	0x3df66f63	0.12032964
20	0x3bacede0	0.0052773803
21	0x3cc56610	0.024096519
22	0x3db8cc11	0.090232976
23	0x3c6ac985	0.014330273
24	0x3dea5d32	0.11443557
25	0xbbca11f5	-0.0061666914
26	0xbb84f3d6	-0.004057388
27	0xbcc70a9c	-0.024297051
28	0xbd8dac50	-0.069176316
29	0x3df66e38	0.12032741
30	0x3c28a5c0	0.010293424
31	0x3dab9a11	0.08378995
32	0x3dd0652c	0.10175547
33	0x3d3ca013	0.046051096
34	0x3ddf8fc6	0.109160945
35	0xbd16cfec	-0.036819384
36	0xbccc94a8	-0.024973229
37	0x3db791da	0.08963366
38	0xbd911304	-0.07083705
39	0x3da493f8	0.08036035
40	0xbd39d0d3	-0.045365166
41	0xbd0e2958	-0.034707397
42	0xbde087f2	-0.109634295
43	0xbd70b5c0	-0.05876708
44	0xbd8f64e0	-0.07001662
45	0x3d3d15d5	0.0461634
46	0x3d74b6a8	0.059744507
47	0x3d554d64	0.05207576
48	0xbdb9b874	-0.09068385
49	0x3d94dc41	0.072685726
50	0xbd6ef378	-0.05833766
51	0x3d76411c	0.060120687
52	0xbdf392fa	-0.11893268
53	0xbccca240	-0.02497971
54	0x3dc23871	0.094834216
55	0x3d8ef438	0.06980175
56	0x3c8c9208	0.017159477
57	0x3db2f9be	0.08739041
58	0x3dcaae9a	0.09896584
59	0xbdd39956	-0.10331981
60	0x3dc678cb	0.09691008
61	0xbdf9e3ba	-0.122016385
62	0xbdb5fa55	-0.08885638
63	0x3d62f3e0	0.05540836
64	0xbdc74392	-0.09729685
65	0x3d8314ca	0.064004496
66	0xbd2457a4	-0.040122643
67	0xbd7b0ef8	-0.061293572
68	0x3d5373d8	0.05162415
69	0x3c80c600	0.015719414
70	0x3dcd1ef4	0.100156695
71	0xbd4a3b54	-0.049372986
72	0x3d3c13cc	0.045917317
73	0x3dcfa4f6	0.10138886
74	0x3bc23480	0.0059266686
75	0x3d9cf6c0	0.07664251
76	0x3d9eadf2	0.07748021
77	0xbdd93df8	-0.10607523
78	0xbcc048e8	-0.023472264
79	0xbd955d94	-0.07293239
80	0xbb64ffc0	-0.0034942478
81	0x3de553bc	0.11197612
82	0xbd910d34	-0.070825964
83	0x3d131e10	0.03591734
84	0x3d38edb4	0.045148566
85	0x3de5469a	0.11195107
86	0x3c904650	0.017611653
87	0xbdcdd114	-0.10049644
88	0x3cfb6308	0.03068687
89	0xbd7a50a4	-0.06111206
90	0xbda32afe	-0.079671845
91	0xbde1073a	-0.109877065
92	0xbd53d798	-0.051719278
93	0x3ddabf3e	0.10681008
94	0xbd7a96ec	-0.061179087
95	0xbd85d716	-0.06535165
96	0xbde32496	-0.110909626
97	0xbd1d9958	-0.038476318
98	0xbdc8e954	-0.09810129
99	0x3df799a8	0.120898545
100	0xbd506fc4	-0.050887838
101	0xbdcd6c3c	-0.1003041
102	0x3dd0523e	0.101719365
103	0x3d2a76a4	0.04161705
104	0x3cf91970	0.030407637
105	0xbc827658	-0.015925571
106	0x3d278314	0.04089649
107	0x3c985fa0	0.018600285
108	0xbb2ea100	-0.0026646256
109	0xba911800	-0.0011069775
110	0xbd9940fc	-0.07483098
111	0xb903a800	-0.00012555718
112	0xbc751170	-0.014957771
113	0x3de2f06c	0.11081013
114	0x3d9a6328	0.07538444
115	0xbdb7cd72	-0.089747325
116	0x3de9b57e	0.1141157
117	0x3d858f0e	0.06521426
118	0xbd1844c8	-0.03717497
119	0xbc6f4c70	-0.014605626
120	0x3d39e420	0.045383573
121	0xbdc37612	-0.095440045
122	0xbd630010	-0.05541998
123	0xbdd45628	-0.103679955
124	0x3cc21d18	0.023695514
125	0x3ddf8096	0.10913198
126	0xbdd8ed36	-0.105921194
127	0xbd8846e0	-0.06654143
128	0x3d50b7f0	0.050956666
129	0xbdd3e6c0	-0.103467464
130	0xbd348da2	-0.044080384
131	0x3c98bde0	0.018645227
132	0x3d274568	0.040837675
133	0xbccd81b8	-0.025086269
134	0xbde9f4e4	-0.11423662
135	0x3d8e2804	0.06941226
136	0xbce471e0	-0.027886331
137	0xbd94f01d	-0.072723605
138	0x3d59c020	0.05316174
139	0xbd0314a4	-0.032002106
140	0x3dd83b4c	0.10558185
141	0x3dd8b928	0.10582191
142	0x3d38e9c0	0.045144796
143	0x3d88f8d6	0.06688087
144	0x3c8042ae	0.015656795
145	0xbdd05d77	-0.10174077
146	0xbd243958	-0.04009375
147	0x3d6fc02e	0.058532886
148	0x3c4c10c0	0.012455165
149	0xbbdf7ce0	-0.006820306
150	0x3d1f859e	0.038945787
151	0xbd1c7fe8	-0.03820792
152	0xbd857ede	-0.065183386
153	0x3d1292bb	0.035784464
154	0x3d9822cc	0.07428512
155	0x3d99b72d	0.07505641
156	0xbd854b24	-0.065084726
157	0x3df1a31e	0.1179869
158	0xbdd4a3fc	-0.1038284
159	0x3db6fc97	0.089348964
160	0xbdb1cd48	-0.086817324
161	0x3dd1a190	0.10235894
162	0xbcb05bf0	-0.021528214
163	0x3cd1fb40	0.0256325
164	0xbd58473c	-0.05280231
165	0x3c331d30	0.010932252
166	0x3df864ec	0.12128624
167	0x3d61b608	0.05510524
168	0xbce4a184	-0.027909048
169	0xbd80a29a	-0.06281014
170	0xbcac2158	-0.021011993
171	0xbc695c30	-0.014243171
172	0xbccd04cd	-0.025026703
173	0x3d101926	0.035180233
174	0xbdedc6a0	-0.1161015
175	0xbd9c645c	-0.076363295
176	0xbda9c4a6	-0.08289461
177	0xbc793d3c	-0.015212353
178	0x3d26f8b4	0.040764526
179	0x3d9f4f9e	0.07778858
180	0xbd03e57c	-0.032201275
181	0xbdf15234	-0.11783257
182	0xbde0d928	-0.10978919
183	0x3d63d108	0.05561927
184	0x3db3a1ec	0.087711185
185	0x3d079587	0.033101585
186	0x3d6df734	0.05809708
187	0x3de1df48	0.11028916
188	0xbcd88170	-0.026428908
189	0x3cf21cf8	0.029554829
190	0x3d1b31a8	0.037889153
191	0x3dfa9df2	0.12237157
192	0xbdfaefd6	-0.12252776
193	0xbca939b8	-0.020657405
194	0xbd30c9b4	-0.04316111
195	0xbd045530	-0.032307804
196	0xbbece640	-0.0072295964
197	0xbcd0c998	-0.025486752
198	0xbcffd448	-0.031229153
199	0xbd94b532	-0.07261123
200	0x3d279378	0.04091212
201	0x3df8ecb0	0.121545196
202	0x3d8cf2da	0.06882258
203	0xbd47193c	-0.04860805
204	0xbcaad448	-0.020853177
205	0xbdfe0832	-0.12403907
206	0xbd05a4dc	-0.032627925
207	0x3de9bb24	0.11412647
208	0xbdc8aa0e	-0.0979806
209	0x3d940282	0.07227041
210	0xbad5b580	-0.0016304702
211	0x3dcf78de	0.101304755
212	0xbdb0476c	-0.08607373
213	0xbd3cc544	-0.046086565
214	0x3d749a40	0.059717417
215	0xbdffa252	-0.12482132
216	0x3df8d250	0.12149489
217	0x3dde96f6	0.10868637
218	0x3dbb437a	0.091437295
219	0xbd4aa45c	-0.04947315
220	0x3d845a0e	0.06462489
221	0x3de38ff0	0.11111438
222	0xbddbc8e4	-0.10731676
223	0xbc5080a0	-0.012725979
224	0x3d1c47a0	0.038154244
225	0xbdf7abe6	-0.12093334
226	0x3d4e8584	0.0504203
227	0xbd0cd30c	-0.034380957
228	0x3db83c28	0.08995849
229	0x3df69e42	0.12041904
230	0xbdfe153e	-0.124063954
231	0xbde54444	-0.11194661
232	0xbcb65a08	-0.022259727
233	0xbd6caf04	-0.057784095
234	0xbde60bfc	-0.112327546
235	0xbdb5c2e8	-0.08875066
236	0x3cef0230	0.029175848
237	0x3c996890	0.018726617
238	0xbde44496	-0.11145894
239	0xbce21538	-0.027598009
240	0x3dac4dd2	0.084132805
241	0x3ca801e0	0.020508707
242	0xbd531030	-0.05152911
243	0xbd570c04	-0.052501693
244	0x3df7e21e	0.12103675
245	0x3d7b8510	0.061406195
246	0xbdc82f4a	-0.09774645
247	0x3cf189f8	0.029484734
248	0xbd24b56c	-0.04021208
249	0x3d179780	0.037009716
250	0x3ddaf304	0.10690883
251	0x3c869f58	0.016433403
252	0xbc9006d0	-0.017581373
253	0xbdfbf8d2	-0.12303318
254	0x3dc5bfbe	0.096557125
255	0xbdb677a2	-0.08909537

gcn_layers.1.fc.bias f4 [64]
0	0x3d8eba1b	0.069690906
1	0xbd1a4980	-0.03766775
2	0xbca275ae	-0.019831505
3	0x3da22562	0.079172865
4	0xbdd06bc7	-0.10176807
5	0xbbecde40	-0.0072286427
6	0x3d386b5c	0.04502426
7	0xbde56410	-0.11200726
8	0xbd5417a3	-0.051780354
9	0x3cd65a99	0.026166247
10	0x3ced97ee	0.02900311
11	0xbc81d39c	-0.015847974
12	0x3df612d6	0.120153114
13	0x3b92f7a0	0.0044850856
14	0x3d45e776	0.04831644
15	0xbdf118e8	-0.117723286
16	0xbd2e4bec	-0.042552873
17	0x3a64b700	0.0008724779
18	0xbda69314	-0.08133522
19	0xbd3a5910	-0.045495093
20	0xbd4bef01	-0.04978848
21	0xbde58931	-0.11207808
22	0xbd5b2a35	-0.05350705
23	0xbd376c21	-0.044780854
24	0x3d7003a5	0.058597226
25	0xbc2dd990	-0.010610953
26	0xbd15faec	-0.03661625
27	0xbd1787ac	-0.03699462
28	0x3d4d7880	0.050163746
29	0xbd94f704	-0.07273677
30	0x3d7b8908	0.06140998
31	0xbdd6d560	-0.10489917
32	0xbdfb4604	-0.12269214
33	0xbad25080	-0.0016045719
34	0x3d6f8af4	0.058482125
35	0x3d92a074	0.0715951
36	0x3d193110	0.037400305
37	0xbd4af719	-0.049552057
38	0x3d8e43f2	0.06946553
39	0xbd50cab4	-0.050974563
40	0x3d127877	0.035759415
41	0xbd425827	-0.04744735
42	0x3dd59e3b	0.10430571
43	0x3d683c10	0.056697905
44	0xbdf2750e	-0.11838733
45	0xbc7a0ec0	-0.015262306
46	0xbdcccf58	-0.10000485
47	0x3d2b849c	0.041874513
48	0xbdddcc18	-0.108299434
49	0xbc57c7b5	-0.013170172
50	0x3d10e378	0.03537318
51	0x3dd050d2	0.10171665
52	0x3d772674	0.060339406
53	0xbdbd72ae	-0.09250389
54	0xbd03140c	-0.03200154
55	0x3dff4dd8	0.124660194
56	0xbdd80712	-0.105482236
57	0xbc9acf38	-0.018897638
58	0xbd9767b0	-0.07392824
59	0xbdffecf6	-0.124963686
60	0x3df49ccc	0.11943969
61	0x3dde2a8c	0.10847959
62	0xbdd3bd77	-0.10338872
63	0xbd0f13c0	-0.034930944

lstm.weight_ih_l0 f4 [256, 64]
0	0xbe0b7601	-0.13619234
1	0x3de10198	0.10986632
2	0xbce9858e	-0.028506067
3	0x3de97ba0	0.11400533
4	0x3d779c03	0.06045152
5	0xbdfc6a86	-0.12325005
6	0x3d517284	0.0511346
7	0x3d632eb8	0.055464476
8	0xbddf7d9f	-0.10912632
9	0xbab17436	-0.0013538662
10	0x3db5355c	0.08848068
11	0xbdb136e8	-0.08653051
12	0xbdcd1e98	-0.10015601
13	0xbdf9296a	-0.12166102
14	0x3d26c6c7	0.040716913
15	0xbdf210b0	-0.11819589
16	0xbdd416ea	-0.10355933
17	0x3d0e0bf0	0.034679353
18	0xbd8845c2	-0.0665393
19	0xbb7a8880	-0.0038228333
20	0xbdcc959e	-0.09989475
21	0x3d8d9726	0.06913595
22	0xbd302f04	-0.043013588
23	0x3bb08114	0.005386481
24	0xbd6dd5d3	-0.058065247
25	0x3d0db1c8	0.034593374
26	0xbc30aca3	-0.010783347
27	0xbc8a80a0	-0.016907036
28	0x3d4ce745	0.050025243
29	0xbe0762c9	-0.13221277
30	0xbd8628ac	-0.06550726
31	0xbd1a7418	-0.037708372
32	0xbda3981d	-0.07987998
33	0xbd12dfb4	-0.03585787
34	0xbdd32a12	-0.10310759
35	0x3d6c9b22	0.057765134
36	0xbd026f40	-0.031844378
37	0xbcc9d3d9	-0.02463715
38	0x3dfbfe22	0.12304331
39	0xbd8fe868	-0.0702675
40	0xbdffe46c	-0.1249474
41	0xbd328518	-0.04358396
42	0x3bffa4ff	0.0078016515
43	0x3dfe99d2	0.12431683
44	0xbdf524d4	-0.11969915
45	0xbd36d9ac	-0.04464118
46	0x3df67cf8	0.12035555
47	0xbd88a44c	-0.06671962
48	0xbdec0515	-0.11524407
49	0xbe02128d	-0.12702389
50	0x3df02dce	0.117274866
51	0xbd353766	-0.044242285
52	0x3d23c52c	0.03998296
53	0x3bd98620	0.0066383034
54	0x3cdeb1e2	0.02718443
55	0x3db18dc2	0.08669616
56	0x3b36ee00	0.0027912855
57	0x3d963876	0.07334988
58	0xbded7da6	-0.11596231
59	0x3c8b2398	0.016984746
60	0xbdf9def0	-0.12200725
61	0xbd328ca9	-0.043591175
62	0x3d495596	0.049153887
63	0xbd976405	-0.07392124
64	0x3cdd4592	0.027010713
65	0xbde2c74a	-0.110731676
66	0x3d4a2dca	0.049360074
67	0xbd0d0084	-0.03442432
68	0x3b686502	0.0035460596
69	0x3c6aeb30	0.0143383
70	0xbcd4e1e8	-0.025986627
71	0x3d57cabc	0.052683577
72	0x3d7b505f	0.061355945
73	0x3db50e3b	0.08840605
74	0xbd06ed6d	-0.03294127
75	0x3d780c82	0.060558803
76	0xba473e00	-0.0007600486
77	0xbddc6100	-0.10760689
78	0x3dc35bc4	0.09538987
79	0xbd78ad20	-0.06071198
80	0x3b25fb00	0.002532661
81	0x3cdc22b8	0.026872024
82	0x3dffb181	0.12485028
83	0x3d9063ba	0.07050271
84	0x3c1e3693	0.009656566
85	0xbde168de	-0.1100633
86	0x3dbd6d3b	0.0924935
87	0xbcdf82f3	-0.027284121
88	0x3d75d9aa	0.060022034
89	0x3d4f17a0	0.05055964
90	0x3dc033f0	0.09384906
91	0x3da301c2	0.0795932
92	0xbc37540e	-0.011189474
93	0x3bb67803	0.0055685057
94	0xbd1d3cf8	-0.038388222
95	0xbbaa4a80	-0.0051968694
96	0x3de5d7ca	0.11222799
97	0x3d8620c8	0.06549221
98	0x3dde8fbe	0.108672604
99	0x3d33c3e2	0.04388798
100	0x3d0e790c	0.034783408
101	0xbd9c74a6	-0.076394364
102	0xbd302e3c	-0.043012843
103	0x3cfd5a18	0.03092675
104	0xbc9b0e50	-0.018927723
105	0x3df5da58	0.120045364
106	0x3de5425d	0.111942984
107	0x3df34354	0.11878076
108	0x3d838fc2	0.06423904
109	0xbcf03158	-0.029320404
110	0x3ba39620	0.0049922615
111	0xbde35050	-0.11099303
112	0xbd0674d5	-0.032826263
113	0x3cf5629c	0.029954247
114	0x3da2d87e	0.07951449
115	0x3bc59837	0.0060301083
116	0x3da38c1a	0.079857066
117	0x3bc57400	0.006025791
118	0xbd07e3c8	-0.033176214
119	0xbdf18db0	-0.11794603
120	0xbddad5c6	-0.10685305
121	0x3d1bae48	0.038008004
122	0xbd1512b0	-0.036394775
123	0xbdf6945e	-0.120400175
124	0x3d4305e0	0.047613025
125	0x3db2330d	0.087011434
126	0xbd17152b	-0.03688542
127	0xbd9885d7	-0.07447403
128	0x3debeb0e	0.115194425
129	0x3db7830c	0.08960542
130	0xbd756a77	-0.059915986
131	0x3ce58908	0.028019443
132	0x3dcee5cb	0.10102423
133	0xbde761f0	-0.11297977
134	0x3d888c3c	0.066673726
135	0xbdb9ceac	-0.09072623
136	0x3dddcbd1	0.108298905
137	0x3da115e4	0.078655034
138	0xbcdea562	-0.02717847
139	0xbdbe152f	-0.09281384
140	0xbc21ebd0	-0.009882882
141	0x3d5c27fc	0.05374907
142	0xbc974ae0	-0.01846832
143	0xbbfc9d20	-0.0077091604
144	0x3dc36a7a	0.09541793
145	0x3dd7158e	0.10502158
146	0x3de8b38c	0.11362371
147	0x3cac67f8	0.02104567
148	0xbda43780	-0.08018398
149	0xbbb6932b	-0.005571743
150	0xbb739270	-0.003716614
151	0xbd18726e	-0.037218504
152	0x3dda6598	0.10663909
153	0x3d9be912	0.07612814
154	0x3dffd91b	0.124925815
155	0x3d4c1b0c	0.04983048
156	0x3d8bca3f	0.06825685
157	0x3d7c77d2	0.061637707
158	0xbdb8302e	-0.089935645
159	0x3cdd2500	0.026995182
160	0x3da7aefd	0.08187673
161	0xbc94ae68	-0.01814957
162	0xbdb7b582	-0.08970167
163	0xbde2369d	-0.11045573
164	0x3b73c480	0.003719598
165	0xbce4aaf6	-0.027913552
166	0x3daf4c84	0.08559516
167	0xbd5c8c0c	-0.053844497
168	0x3bb21820	0.005435005
169	0xbdc0d9e4	-0.09416559
170	0x3d2fb66c	0.04289858
171	0x3df5913a	0.119905904
172	0x3d416214	0.047212675
173	0xbdabd5e4	-0.08390406
174	0x3cbf2eb0	0.023337692
175	0xbda1eeda	-0.079068854
176	0x3daffd7e	0.08593272
177	0x3e02861a	0.12746468
178	0xbd635720	-0.05550301
179	0x3da96669	0.08271486
180	0xbdc937d8	-0.098251045
181	0x3d839146	0.06424193
182	0x3dddb495	0.10825459
183	0xbc99f138	-0.01879178
184	0xbd31814c	-0.043336198
185	0xbd86bffc	-0.06579587
186	0x3de5091e	0.111833796
187	0xbd305ebc	-0.043059096
188	0xbdcf6e82	-0.101284996
189	0xbd7fb7e4	-0.06243123
190	0x3d4e4c95	0.050366003
191	0x3d7caa55	0.06168588
192	0xbcdfcff2	-0.027320836
193	0x3def0334	0.11670533
194	0xbdd97ebb	-0.10619875
195	0xbdc13076	-0.09433071
196	0xbc2f4607	-0.010697848
197	0xbcf81480	-0.030283213
198	0xbdd688e2	-0.10475327
199	0x3b6a6e80	0.003577143
200	0x3d9be630	0.07612264
201	0x3cfc5a3e	0.03080475
202	0xbcf07f78	-0.029357657
203	0xbd8906b3	-0.06690731
204	0xbd85cff4	-0.065338045
205	0xbc21ab50	-0.009867504
206	0xbd207a0a	-0.039178886
207	0xbca64a78	-0.020299181
208	0xbd726c40	-0.059185266
209	0xbdf708ee	-0.1206225
210	0x3dbc5c35	0.091972746
211	0x3df6fe7a	0.12060256
212	0xbd6fadcc	-0.058515355
213	0x3d51a722	0.05118478
214	0x3d03f99a	0.03222046
215	0xbdf2dd24	-0.118585855
216	0x3e044a59	0.12918986
217	0xbd1b9d0c	-0.03799157
218	0x3d99d52d	0.07511363
219	0xbd1ee248	-0.038790017
220	0xbba1ee42	-0.0049417326
221	0x3d9b2cf5	0.07576934
222	0x3dce858a	0.10084064
223	0x3d93a806	0.07209782
224	0x3ddda5d1	0.108226426
225	0x3d270e50	0.040785134
226	0xbca81b00	-0.020520687
227	0x3c9fd8dd	0.019512588
228	0x3da9cc18	0.08290881
229	0xbc2056e7	-0.009786344
230	0x3dff30c4	0.12460473
231	0x3dba8176	0.09106724
232	0x3cdb3248	0.026757374
233	0x3d0de85b	0.03464542
234	0xbd9413e4	-0.07230356
235	0xbd0dcb40	-0.034617662
236	0x3cc28dd0	0.023749262
237	0xbb190600	-0.0023349524
238	0xba3af800	-0.0007132292
239	0x3dedda86	0.11613946
240	0xbdacc8eb	-0.084367596
241	0xbdb4e7d5	-0.08833281
242	0xbdadbcd0	-0.08483279
243	0xbd76a952	-0.06022007
244	0xbd8486e4	-0.06471041
245	0xbdf79976	-0.12089817
246	0xbde3485b	-0.11097785
247	0x3c170bf0	0.009219155
248	0xbdf22424	-0.118232995
249	0x3d8cefd4	0.06881681
250	0xbdb08c6a	-0.08620532
251	0x3c442560	0.0119718015
252	0x3de742b8	0.112920225
253	0xbd0e8b18	-0.03480062
254	0xbdbbec36	-0.09175913
255	0x3d370bf2	0.044689126

lstm.weight_hh_l0 f4 [256, 64]
0	0xbd7ad054	-0.061233833
1	0xbc3679b9	-0.011137419
2	0x3dd29f28	0.10284263
3	0x3caeeead	0.021354044
4	0x3db89df6	0.09014504
5	0xbd8b3d99	-0.06798858
6	0x3c5013d6	0.012700042
7	0x3c89ee38	0.016837224
8	0x3d76d720	0.060263753
9	0x3d8f225c	0.069889754
10	0xbdce2b4f	-0.10066854
11	0xbc7e0c56	-0.015505871
12	0xbc461391	-0.012089626
13	0x3df82f2f	0.121183746
14	0x3ca630a3	0.020286864
15	0xbda3d48b	-0.07999524
16	0x3c95cbf8	0.018285736
17	0xbdc0b931	-0.094103225
18	0xbddde64d	-0.10834942
19	0xbd064304	-0.032778755
20	0xbd3e9e58	-0.046537727
21	0x3c3095b3	0.010777879
22	0xbd7ea110	-0.06216532
23	0xbd2d94d8	-0.042378277
24	0x3d16d71d	0.03682624
25	0xbdaf8422	-0.08570124
26	0xbc1b1218	-0.009464763
27	0xbdc514dd	-0.0962312
28	0x3c9095fa	0.01764964
29	0xbd9e6442	-0.077339664
30	0x3d1727fb	0.036903363
31	0xbcbc1308	-0.022958294
32	0x3a6940d9	0.00088979077
33	0x3db6a9a3	0.089190744
34	0x3dc61daf	0.096736304
35	0xbd6ff7bb	-0.058585864
36	0x3d3244d0	0.043522656
37	0xbc4cdc44	-0.012503687
38	0x3d9abaea	0.07555182
39	0x3dc2a6c6	0.09504466
40	0xbdf0c110	-0.11755574
41	0x3dc81710	0.09770024
42	0xbcfd2ffb	-0.030906668
43	0x3de11670	0.10990608
44	0xbdb45b73	-0.08806505
45	0xbd49d072	-0.049271055
46	0x3d10bb01	0.03533459
47	0x3d45ba49	0.04827336
48	0xbdb9624a	-0.0905195
49	0xbd5b3d80	-0.053525448
50	0x3dbec392	0.09314646
51	0xbdc36424	-0.09540585
52	0xbd5b1ad2	-0.053492375
53	0x3d0261b9	0.031831477
54	0x3a606700	0.000856027
55	0xbce171f0	-0.02752015
56	0xbdde59cf	-0.108569734
57	0x3e03a757	0.12856804
58	0xbdc0b6b5	-0.094098486
59	0x3d949c44	0.07256368
60	0xbdcf825a	-0.101322845
61	0x3d6e8f3f	0.05824208
62	0xbd571ddc	-0.05251871
63	0x3d68d967	0.056847956
64	0xbdb08dcc	-0.086207956
65	0xbcdbd73d	-0.026836032
66	0x3dc78345	0.097418346
67	0x3dc06d1d	0.09395812
68	0x3dd4868c	0.10377225
69	0xbda3dbcf	-0.080009095
70	0x3dac2847	0.0840612
71	0xbd89e0c4	-0.06732324
72	0xbdd51631	-0.10404623
73	0xbc2ce4c5	-0.01055259
74	0x3d4acac4	0.04950978
75	0x3c20e392	0.009819882
76	0xbdebbe88	-0.1151095
77	0xbd9ae78d	-0.07563696
78	0x3d94dbd5	0.07268492
79	0x3da2a064	0.07940748
80	0x3dfa1b14	0.12212196
81	0x3c8d70bd	0.017265672
82	0xbd4e7d43	-0.050412428
83	0xbca173e0	-0.019708574
84	0xbc88e570	-0.016710967
85	0xbdb31c99	-0.08745689
86	0xbdb4aac2	-0.08821632
87	0x3d9a0920	0.07521272
88	0x3d9517e3	0.07279947
89	0xbd569bd0	-0.052394688
90	0xbd99fb2a	-0.07518609
91	0x3c8ab128	0.016930178
92	0xbdec8165	-0.115481175
93	0x3db15934	0.08659592
94	0xbd3779c2	-0.04479385
95	0x3d3671d0	0.044542134
96	0xbd1b1a03	-0.037866604
97	0x3c8fa7bd	0.017536039
98	0x3d0f4804	0.03498079
99	0xbcf320dd	-0.029678756
100	0xbd3d2158	-0.046174377
101	0xbc3a0ad0	-0.011355117
102	0xbc310b02	-0.010805847
103	0xbdc752fb	-0.09732624
104	0xbdddca3e	-0.1082959
105	0x3d81192c	0.06303629
106	0x3df809d0	0.121112466
107	0xbd9d9c0f	-0.076957814
108	0xbdfda84d	-0.123856165
109	0xbd47230c	-0.048617408
110	0xbd751ed4	-0.059843853
111	0x3d01f95b	0.031731945
112	0xbc35fb3a	-0.01110726
113	0xbd9fe7d6	-0.07807891
114	0x3dfe4e0d	0.12417231
115	0x3de98a4a	0.1140333
116	0x3dbd33ae	0.09238373
117	0xbd554309	-0.052065883
118	0xbdfb092a	-0.12257607
119	0xbcf260f0	-0.029587239
120	0x3cf7d222	0.030251566
121	0xbcb4e587	-0.022082103
122	0x3da1dccd	0.079034425
123	0x3d0101e0	0.03149593
124	0x3d25d2ed	0.040484358
125	0x3c9a07cd	0.018802548
126	0xbcefd6b6	-0.029277187
127	0xbd8b0b35	-0.06789247
128	0xbcf51a38	-0.029919729
129	0x3dcb72f0	0.09934032
130	0xbd7cc85d	-0.06171452
131	0xbcba532c	-0.022744738
132	0xbd7809c0	-0.060556173
133	0x3d411a64	0.04714431
134	0x3db22330	0.08698118
135	0x3ca31dc0	0.019911647
136	0xbe015b5d	-0.12632509
137	0xbc71b7df	-0.014753311
138	0x3d9787e1	0.07398964
139	0xbdcea06f	-0.10089194
140	0xbd9d2983	-0.07673933
141	0x3dd04386	0.10169129
142	0xbcc8f509	-0.024530904
143	0x3d1536d1	0.03642923
144	0x3df35e26	0.11883192
145	0x3cacbb5e	0.021085437
146	0xbdb0cc55	-0.08632723
147	0xbdf4f43c	-0.119606465
148	0xbdad7182	-0.084689155
149	0xbbe9cc3f	-0.0071349437
150	0xbcfac142	-0.03060973
151	0x3d1fabc4	0.038982168
152	0xbcf9688d	-0.030445362
153	0x3dbbc8ba	0.09169145
154	0xbd2812a9	-0.04103342
155	0xbd0e78ee	-0.034783296
156	0xbd913491	-0.07090104
157	0x3d40d70c	0.047080085
158	0x3da583a3	0.08081748
159	0xbdb0410a	-0.08606155
160	0xbdb80f55	-0.08987299
161	0x3d67c2c0	0.056582212
162	0xbdb3b305	-0.0877438
163	0xbdd26d56	-0.102747604
164	0x3db812b0	0.08987939
165	0xbdf369ed	-0.11885438
166	0xbc121952	-0.00891717
167	0xbda78083	-0.081788085
168	0x3c3cc370	0.011521205
169	0xbd5cc084	-0.053894535
170	0xbd925065	-0.0714424
171	0xbdca9860	-0.098923445
172	0xbdf4a03a	-0.11944623
173	0x3db4f4b9	0.0883574
174	0xbd54e0b6	-0.051972114
175	0x3d95c0d2	0.07312168
176	0x3dd1f58a	0.10251911
177	0xbc8b4b10	-0.017003566
178	0xbda2ba60	-0.079457045
179	0x3c960758	0.018314049
180	0x3c0a482d	0.00844006
181	0x3cd3c1c8	0.025849238
182	0x3c988090	0.01861599
183	0x3de65870	0.11247337
184	0x3ce3feba	0.027831424
185	0x3d817241	0.0632062
186	0xbe05fdec	-0.13085145
187	0xbd28489c	-0.04108487
188	0xbbe93c2c	-0.0071177687
189	0x3d2d7a33	0.042352866
190	0xbdcb96e4	-0.099408895
191	0xbda042cc	-0.078252405
192	0x3d62fd23	0.05541719
193	0xbd1584a8	-0.036503464
194	0x3d351a57	0.044214573
195	0xbd22f090	-0.0397802
196	0xbdd27be1	-0.10277534
197	0xbcb61677	-0.022227509
198	0xbdacc5ad	-0.08436141
199	0x3db73f4b	0.08947619
200	0xbd50467a	-0.05084846
201	0x3db3c0aa	0.08776982
202	0x3ddede24	0.10882214
203	0x3c949a20	0.018139899
204	0xbd168e5b	-0.036756855
205	0xbda275de	-0.07932638
206	0x3dd3084a	0.103043154
207	0xbcfeca70	-0.03110239
208	0x3d08d44c	0.033405587
209	0x3c5f205b	0.013618554
210	0x3d6d98cc	0.058007047
211	0x3caea815	0.021320382
212	0xbc8d59cd	-0.017254734
213	0x3d8402f1	0.064458735
214	0xbdbb86b4	-0.09156552
215	0xbd5e8e77	-0.054335084
216	0x3d829aaa	0.06377156
217	0x3db7f2e4	0.089818746
218	0x3dff8385	0.12476257
219	0x3db6acae	0.08919655
220	0xbd297562	-0.04137171
221	0x3de544ac	0.11194739
222	0x3d3e773e	0.046500437
223	0x3dc37476	0.095436975
224	0xbdd942dd	-0.10608456
225	0x3d98b682	0.074566856
226	0x3c65e58a	0.014031777
227	0xbddb9b8e	-0.10723029
228	0xbd955d6b	-0.07293209
229	0xbd16166e	-0.036642484
230	0xbde1af07	-0.11019712
231	0x3da6c7e0	0.08143592
232	0x3d92a706	0.071607634
233	0xbc03fe0d	-0.008056176
234	0xbd978bb6	-0.073996946
235	0xbd83e402	-0.064399734
236	0xbdc7df4e	-0.09759389
237	0xbd9bf78c	-0.07615575
238	0xbd484df7	-0.048902478
239	0x3ddaaac7	0.106771044
240	0x3be30af3	0.0069287955
241	0x3bef6cd0	0.0073066726
242	0x3dcfc63c	0.10145232
243	0x3d79f5b6	0.061025344
244	0x3ddf4d78	0.10903448
245	0xbdd53c0d	-0.104118444
246	0xbd856bf9	-0.06514735
247	0x3c866a9d	0.016408259
248	0x3dd34d06	0.103174254
249	0xbd01257b	-0.031529885
250	0xbdb6527a	-0.0890245
251	0xbdd1f7ba	-0.10252328
252	0x3d11a071	0.0355534
253	0xbdf0afc2	-0.11752273
254	0x3d51e8e5	0.051247496
255	0xbdd2f6ae	-0.10300957

lstm.bias_ih_l0 f4 [256]
0	0xbc58ea66	-0.013239479
1	0x3ddd611d	0.108095385
2	0xbcf3a47f	-0.029741524
3	0x3df9ba22	0.12193705
4	0x3ce4c1aa	0.027924377
5	0x3d94455e	0.07239793
6	0x3d21581a	0.03939066
7	0xbdd52e3d	-0.1040921
8	0x3da981cd	0.08276711
9	0xbd1e8668	-0.0387024
10	0x3ddaa284	0.10675529
11	0x3ddb9cd5	0.10723273
12	0x3da6ecea	0.081506565
13	0x3dc0a120	0.09405732
14	0x3db76ede	0.08956693
15	0xbc877bfd	-0.016538614
16	0xbca46e1b	-0.020072034
17	0xbdd0198a	-0.10161121
18	0xbd3a6bea	-0.04551307
19	0xbde78422	-0.11304499
20	0x3d53462d	0.051580597
21	0xbdc01972	-0.09379853
22	0x3d786823	0.060646188
23	0x3d7dda3f	0.061975714
24	0xbd482ad0	-0.048868954
25	0x3c4b5268	0.012409784
26	0x3d66bd8c	0.05633311
27	0xbda6fb88	-0.081534445
28	0xbdd1342a	-0.10215028
29	0xbdf65d58	-0.12029523
30	0x3de555a1	0.11197973
31	0xbdacb648	-0.08433205
32	0xbd8013ee	-0.06253801
33	0xbddd842f	-0.10816228
34	0xbcdde359	-0.027085947
35	0x3d0f9032	0.035049625
36	0xbddb892f	-0.10719525
37	0x3d15b3bc	0.03654836
38	0xbd67b0e7	-0.05656519
39	0x3e02a4e7	0.12758218
40	0x3dd10853	0.10206666
41	0xbdde2c91	-0.10848344
42	0x3d62bb05	0.055354137
43	0x3b873932	0.0041266913
44	0xbd1b1b0b	-0.037867587
45	0x3b5283fb	0.0032122124
46	0x3d8db4ad	0.06919227
47	0xbd7f3992	-0.062310763
48	0x3c6c8c20	0.014437705
49	0xbce23618	-0.027613685
50	0xbd11049a	-0.03540478
51	0x3deaa8fc	0.114580125
52	0x3c8e2345	0.017350802
53	0xbd776079	-0.060394738
54	0xbc166325	-0.009178911
55	0xbd8a5103	-0.06753733
56	0xba17c67b	-0.0005789769
57	0xbddd22fb	-0.107976876
58	0x3cab5f70	0.020919532
59	0xbdfec914	-0.12440696
60	0x3dc5944f	0.09647428
61	0x3dd02a4e	0.10164319
62	0x3ca9cef3	0.020728564
63	0xbdba5b35	-0.090994276
64	0x3de4b91e	0.11168121
65	0xbc29702f	-0.010341688
66	0xbda6f887	-0.081528716
67	0x3b465826	0.0030264943
68	0xbce1a097	-0.027542396
69	0xbd9370d9	-0.07199258
70	0x3d337c71	0.04381985
71	0x3d5406f0	0.05176443
72	0xbc9a2dc6	-0.018820655
73	0x3d94237a	0.07233329
74	0x3de5c2e2	0.112188116
75	0xbd4c694a	-0.0499051
76	0x399ca7e9	0.00029879741
77	0x3d0ad3d0	0.033893406
78	0x3d93c400	0.072151184
79	0x3cc2393c	0.023708932
80	0xbd26510c	-0.040604636
81	0x3dc04af6	0.09389298
82	0xbdeb3553	-0.1148478
83	0xbdc8859f	-0.09791111
84	0xbc7cde85	-0.015433912
85	0x3c95354a	0.018213887
86	0x3d83af29	0.064298935
87	0x3a632600	0.0008665025
88	0x3e2329c3	0.159339
89	0xb9a33d6a	-0.0003113554
90	0xbc15edb0	-0.009150907
91	0xbda6cc0b	-0.08144387
92	0xbc3d6d7b	-0.011561747
93	0xbd9ebece	-0.07751237
94	0xbce60cf3	-0.028082347
95	0x3d805518	0.0626623
96	0x3de1d8ea	0.11027701
97	0xbca5c207	-0.020234121
98	0x3e0e1654	0.13875705
99	0x3d96b518	0.0735876
100	0x3c82338e	0.015893724
101	0x3d5b87b3	0.05359621
102	0x3e0bf17e	0.1366634
103	0xbd440e53	-0.047865223
104	0xb960fa82	-0.00021455626
105	0x3de6c9cf	0.11268961
106	0x3ce72400	0.028215408
107	0xbc0a3b9c	-0.008437064
108	0xbd9853f8	-0.07437891
109	0x3d8d9424	0.06913021
110	0x3dca18fd	0.098680474
111	0x3dfb30ab	0.12265142
112	0xbdaf324c	-0.08554515
113	0x3cb97b7f	0.022641895
114	0xbbf82cd1	-0.007573702
115	0x3c046460	0.008080572
116	0x3dad40ea	0.08459647
117	0xbdc1db6f	-0.09465682
118	0xbddb2000	-0.10699463
119	0x3d8688f8	0.065690935
120	0x3d13af4d	0.03605585
121	0x3d693342	0.05693365
122	0x3d7e8fbc	0.062148795
123	0x3d3248ac	0.043526337
124	0x3d1a78e5	0.03771295
125	0xbdb48e68	-0.08816224
126	0x3c39c39c	0.011338141
127	0xbd9556c4	-0.0729194
128	0xbbfbb1c1	-0.007681102
129	0xbc84190f	-0.01612523
130	0xbcdd15ed	-0.026987994
131	0x3d73a425	0.059482712
132	0x3db0ece9	0.08638937
133	0xbc4b5923	-0.012411389
134	0x3dad6af2	0.08467664
135	0xbdb23e26	-0.0870326
136	0xbd80f525	-0.062967576
137	0x3d8a3932	0.067491904
138	0xbb1355a3	-0.0022481463
139	0xbc787b24	-0.015166078
140	0x3c746346	0.014916247
141	0x3b869891	0.004107543
142	0x3d82ebf1	0.063926585
143	0x3ca6713d	0.020317668
144	0xbdae4d6b	-0.0851086
145	0x3cd850b1	0.026405664
146	0xbd82e95b	-0.06392165
147	0x3d376e57	0.044782963
148	0x3dbf4506	0.09339337
149	0x3dd0a613	0.10187926
150	0xbc75d197	-0.015003583
151	0x3cb4d5ec	0.022074662
152	0xbcd0ec91	-0.025503429
153	0xbd722d2f	-0.05912512
154	0xbdc3a3ca	-0.09552725
155	0xbd3524df	-0.044224616
156	0xbd8104a4	-0.06299713
157	0xbdbba356	-0.09162013
158	0xbdf3e54c	-0.11908969
159	0xbd4356a4	-0.04769005
160	0x3d212959	0.039346073
161	0x3d81ff83	0.06347563
162	0x3de043d2	0.10950436
163	0x3dcdb270	0.100438
164	0x3da39d6d	0.07989011
165	0x3bb0a794	0.0053910706
166	0xbdb1b905	-0.08677868
167	0xbda963b0	-0.08270967
168	0xbdcbd1e3	-0.09952142
169	0xbd0fd51e	-0.035115354
170	0xbd30ca85	-0.043161888
171	0xbd7b13f1	-0.061298314
172	0x3d1bebd4	0.0380667
173	0xbdf6aee3	-0.12045076
174	0xbe0b65e2	-0.13613084
175	0xbd8af1b6	-0.06784384
176	0x3dbd6f3e	0.092497334
177	0xbd0abd8e	-0.03387218
178	0xbc4893e9	-0.012242296
179	0xbdd45c4b	-0.10369166
180	0xbd161810	-0.03664404
181	0x3dfca67c	0.12336442
182	0xbd819b13	-0.06328406
183	0x3ce1fcee	0.027586427
184	0xbe00598b	-0.12534158
185	0xbd868dfb	-0.065700494
186	0xbda43e46	-0.0801969
187	0x3dc38883	0.09547522
188	0xbdfe82d9	-0.12427301
189	0xbd3dd795	-0.046348173
190	0x3c9a26b8	0.01881729
191	0x3dbbbfe2	0.09167458
192	0x3d916dee	0.071010455
193	0x3d775c94	0.060391024
194	0xbbbf74a0	-0.00584276
195	0x3d3da822	0.046302922
196	0xbd8eb445	-0.069679774
197	0xbc45a513	-0.012063283
198	0x3dc19245	0.09451727
199	0x3c0d66af	0.008630439
200	0xbdf278ae	-0.11839424
201	0xbc0faa30	-0.008768603
202	0xbd6c8218	-0.057741255
203	0xbc3f36eb	-0.011670808
204	0x3d182e97	0.037153807
205	0x3d8064c0	0.062692165
206	0x3ce63fc6	0.028106581
207	0xbdc4ca58	-0.096089065
208	0xbcc04d2e	-0.023474302
209	0x3dad9bc6	0.08476977
210	0xbcb4c840	-0.022068143
211	0x3bedd49d	0.0072580115
212	0x3dc0109c	0.09378168
213	0x3d99465d	0.07484124
214	0xbd654566	-0.055974387
215	0x3d8154fe	0.06315039
216	0xbcbe5e4c	-0.023238324
217	0xbdd935a3	-0.106059335
218	0x3d323b70	0.043513715
219	0xbc2a4547	-0.010392494
220	0x3ca4cdf5	0.02011774
221	0x3c978872	0.01849768
222	0x3de21454	0.110390335
223	0x3db6d051	0.08926452
224	0x3c543815	0.012952824
225	0xbc21c203	-0.009872916
226	0xbdaa104b	-0.08303889
227	0xbc159729	-0.009130278
228	0xbd2cf116	-0.042222105
229	0x3df912a7	0.12161761
230	0x3d4ef349	0.050524984
231	0x3d203a16	0.039117895
232	0x3de236a1	0.11045576
233	0xbd864a12	-0.065570965
234	0x3d6bff57	0.057616558
235	0x3e0cdb43	0.13755517
236	0x3dc51edb	0.09625026
237	0xbdc83124	-0.09774998
238	0xbbef5911	-0.0073043187
239	0x3dfbb412	0.12290205
240	0xbcf6a366	-0.030107211
241	0x3d7632f2	0.06010718
242	0xbd1979ba	-0.037469603
243	0x3dc2f042	0.09518482
244	0x3dbdbfca	0.092650965
245	0x3c9724a0	0.018450081
246	0x3de0782a	0.109604195
247	0x3db77cc0	0.08959341
248	0x3e005e18	0.12535894
249	0xbcca2550	-0.024675995
250	0xba8bfece	-0.0010680796
251	0xbdf62360	-0.12018466
252	0x3e163dce	0.14672014
253	0xbd5f6af1	-0.054545347
254	0x3d142a98	0.036173433
255	0x3da54fcb	0.0807186

lstm.bias_hh_l0 f4 [256]
0	0x3dcec7ef	0.10096728
1	0x3d83fc55	0.06444613
2	0xbd56f01f	-0.05247509
3	0x3cef11c1	0.02918327
4	0x3d93cadf	0.07216429
5	0xbcc41eb1	-0.023940416
6	0x3e0fb10d	0.14032383
7	0xbcdcda8f	-0.026959686
8	0x3d8a28f3	0.06746092
9	0x3da7196f	0.08159148
10	0x3d34068b	0.043951552
11	0x3bcc79d3	0.0062401085
12	0x3dfb0d88	0.1225844
13	0xbd8472ac	-0.064671844
14	0xbc89d2ea	-0.016824204
15	0x3c8da795	0.017291823
16	0xbd705687	-0.05867627
17	0xbdc72cbe	-0.09725331
18	0xbdfb5775	-0.122725405
19	0x3dc75b2a	0.09734185
20	0x3dd19230	0.10232961
21	0xbd879b9a	-0.066214755
22	0xbd0ed939	-0.03487513
23	0xbd9f043e	-0.07764481
24	0xbd770057	-0.06030306
25	0x3d43e8d0	0.04782945
26	0x3db3597d	0.08757303
27	0x3d570e3b	0.052503806
28	0xbde1533a	-0.11002202
29	0x3db642a6	0.08899431
30	0x3de9be99	0.11413307
31	0x3d9c90e8	0.07644826
32	0xbdc64ace	-0.096822366
33	0x3d9d57fb	0.076827966
34	0xbd070edd	-0.03297316
35	0xbdce93b2	-0.100867644
36	0x3d892af9	0.066976495
37	0x3c22b74b	0.009931396
38	0x3c5ee256	0.013603767
39	0x3d1ee80c	0.038795516
40	0xbdc40575	-0.09571353
41	0xbe0193cd	-0.12654038
42	0x3ca7eb4a	0.020497937
43	0x3d2e6836	0.042579852
44	0x3e04afc8	0.1295768
45	0x3e00a471	0.1256273
46	0xbdce2f1e	-0.10067581
47	0x3d843583	0.06455519
48	0x3e035640	0.1282587
49	0xbdba47cc	-0.090957254
50	0xbd6aff9f	-0.057372686
51	0xbd7e25e6	-0.06204786
52	0xbd28b5d6	-0.041189037
53	0xbe041056	-0.12896857
54	0xbd39fe03	-0.04540826
55	0xbd178e8a	-0.03700117
56	0x3dc31200	0.095249176
57	0xbb9e0b50	-0.004823126
58	0x3c0e5d47	0.008689231
59	0xbd966736	-0.07343905
60	0xbc9d2acf	-0.019185452
61	0x3ddf91d0	0.109164834
62	0x3dcbe3c9	0.09955556
63	0xbdcb2721	-0.099195726
64	0x3d5dc6e4	0.054144755
65	0x3de93d09	0.11388595
66	0xbc485bc8	-0.012228914
67	0xbca02611	-0.019549401
68	0xbdfff321	-0.12497545
69	0xbd86715d	-0.06564591
70	0xbd9c1957	-0.07622021
71	0xbd6816ec	-0.056662485
72	0xbd4c8d34	-0.04993935
73	0x3e01a6ea	0.12661329
74	0x3dc3a3fa	0.095527604
75	0x3d0f0e7c	0.034925923
76	0xbd8be6f3	-0.068311594
77	0x3cf76168	0.030197814
78	0xbce85dd8	-0.02836506
79	0xbd07f76e	-0.03319495
80	0x3d75969c	0.059958085
81	0xbd4048a1	-0.046944264
82	0xbd159a6b	-0.036524218
83	0x3d61e60d	0.055151034
84	0xbde12c1f	-0.109947436
85	0xbd9ec1d7	-0.07751816
86	0x3d89e5b9	0.06733269
87	0xbd8734de	-0.066018805
88	0xbd6df9fe	-0.05809974
89	0xbdfb0b47	-0.1225801
90	0xbde0d6db	-0.109784804
91	0x3bf3899a	0.007432175
92	0xbdc29873	-0.09501734
93	0xbd18cdb4	-0.03730555
94	0xbd7bd085	-0.061478157
95	0xbd0baff3	-0.034103345
96	0x3d5988b9	0.053108905
97	0x3cfd16a0	0.030894578
98	0xbb9c27a9	-0.00476547
99	0x3df2e9ce	0.11861001
100	0xbce8c25a	-0.028412987
101	0xbcc75e36	-0.024336915
102	0xbc6e7ca6	-0.014556086
103	0xbd833cd5	-0.06408087
104	0xbd2ee4f6	-0.042698823
105	0xbdaa5941	-0.08317805
106	0x3dd800be	0.105470166
107	0x3d0ef778	0.034903973
108	0x3d94fdce	0.07274972
109	0x3db14c86	0.08657174
110	0xbbed22f7	-0.007236834
111	0x3d8000a4	0.06250122
112	0x3dd4f954	0.10399118
113	0xbdb91612	-0.09037413
114	0x3cb7d64d	0.022441054
115	0x3d441bb9	0.047878
116	0x3de73c1b	0.11290761
117	0x3d8521e3	0.06500604
118	0xba8fe080	-0.001097694
119	0xbd446a8c	-0.047953174
120	0xbc71ddbc	-0.014762338
121	0xbdc5c843	-0.096573375
122	0xbd636dc5	-0.055524606
123	0x3da488b7	0.08033889
124	0xbc89e82d	-0.016834343
125	0x3d700ef6	0.058608018
126	0x3ddf715a	0.10910292
127	0x3bf3721e	0.0074293753
128	0x3ca02564	0.01954908
129	0xbdd7e820	-0.10542321
130	0x3dbf108f	0.0932933
131	0xbd328387	-0.043582465
132	0x3cc482d8	0.023988172
133	0x3de06a0e	0.10957728
134	0xbe012ed8	-0.12615526
135	0xbd7767ad	-0.060401607
136	0x3d02a2ed	0.03189366
137	0x3dd5d1ac	0.10440382
138	0x3df8f092	0.1215526
139	0x3c0a332c	0.008435052
140	0xbd58ac45	-0.052898664
141	0xbcfa6a99	-0.030568408
142	0x3de4bd55	0.11168925
143	0xbd736673	-0.059423875
144	0x3d913047	0.07089286
145	0x3ca69425	0.020334313
146	0x3c97e9c5	0.018544087
147	0xbdf2eadb	-0.118612014
148	0x3d89c30e	0.06726657
149	0x3db9fa3d	0.09080932
150	0xbcf67f16	-0.030089896
151	0x3cd5088c	0.026005052
152	0xbdf1d7c6	-0.11808734
153	0xbd8e0130	-0.0693382
154	0xbc109c0c	-0.008826267
155	0x3dfc24af	0.12311684
156	0x3db93fc8	0.090453684
157	0xbe015de9	-0.1263348
158	0xbd5fbfe0	-0.054626346
159	0xbdf46c0b	-0.1193467
160	0xbd9c22e5	-0.07623843
161	0xbda26fa3	-0.07931449
162	0x3d7bfc09	0.061519656
163	0x3e09c893	0.13455419
164	0x3c5a5a03	0.0133271245
165	0xbcb7d392	-0.022439752
166	0xbdc8227f	-0.097722046
167	0xbdce3acc	-0.10069808
168	0xbdb7ccc5	-0.089746036
169	0x3c031cd2	0.008002477
170	0xbde99579	-0.11405463
171	0x3d705573	0.05867524
172	0x3de2b058	0.11068791
173	0x3da0728d	0.07834349
174	0xbddc9459	-0.107704826
175	0x3b4727f3	0.0030388802
176	0x3da919a8	0.08256847
177	0x3d72fdd4	0.0593241
178	0xbc2d7a39	-0.010588222
179	0xbd68f3ad	-0.056873012
180	0x3d12f3be	0.035876982
181	0xbd939cce	-0.072076425
182	0xbdf180ad	-0.11792121
183	0x3d9688c8	0.07350308
184	0xbdfefd79	-0.1245069
185	0xbd4a4a0c	-0.049387023
186	0xbdaf27d0	-0.085525155
187	0x3d81c509	0.063364096
188	0x3d99f5f5	0.07517616
189	0x3d4155a5	0.047200818
190	0x3d83beea	0.06432898
191	0xbdb01af6	-0.085988924
192	0xbd9c41c6	-0.07629733
193	0xbcca9239	-0.024727928
194	0x3e14813a	0.14502421
195	0x3c8adc77	0.016950829
196	0x3daab243	0.08334782
197	0x3dce95c5	0.1008716
198	0x3e0c5943	0.13705926
199	0x3c47d03d	0.012195644
200	0xbd8941c4	-0.06701997
201	0xbd8befda	-0.068328574
202	0x3dd7c0e5	0.105348386
203	0x3e06d68d	0.13167782
204	0x3e0b15b9	0.13582505
205	0xbdc7c902	-0.09755136
206	0x3ce3e0ae	0.027817097
207	0xbd839f1c	-0.06426832
208	0xbdd6b2f7	-0.104833536
209	0x3c8a6034	0.016891576
210	0xbce53144	-0.027977593
211	0x3c107eb6	0.008819273
212	0x3d995ab8	0.07488006
213	0x3d736796	0.05942496
214	0xbdc412cd	-0.095738985
215	0x3d9b7416	0.07590501
216	0x3dadd3a8	0.08487636
217	0x3dbc6b65	0.092001714
218	0xbd89c87f	-0.06727695
219	0x3d3f813b	0.046754103
220	0x3d64608c	0.055756137
221	0x3dcd6fbc	0.10031077
222	0xbdd3efe6	-0.10348491
223	0xbd71f6ec	-0.059073374
224	0x3c5d3cb5	0.013503243
225	0x3d770110	0.060303748
226	0x3c8c5199	0.017128753
227	0x3e02ec0f	0.12785362
228	0x3ce2850f	0.027651338
229	0x3e031cc5	0.12803943
230	0x3c3d3e9a	0.01155057
231	0x3cac55bb	0.021036973
232	0x3b488e88	0.0030602533
233	0xbd440d78	-0.047864407
234	0x3dee2179	0.11627478
235	0xbdb5300b	-0.08847054
236	0xbd21f504	-0.039540306
237	0xba3cd524	-0.0007203391
238	0xbc5fa435	-0.01364999
239	0x3b67ac4a	0.0035350495
240	0x3e04032c	0.12891835
241	0x3dcddea3	0.1005223
242	0xbdc7c4fa	-0.09754367
243	0xbcbee5ad	-0.023302877
244	0xbddd13d8	-0.107948005
245	0xbd88e57c	-0.06684396
246	0x3d5cf1d7	0.053941574
247	0x3dc53496	0.096291706
248	0xbdc06336	-0.09393923
249	0xbccc7f0f	-0.02496293
250	0xbd6b036e	-0.057376318
251	0x3dbf102e	0.09329258
252	0x3dd00a80	0.10158253
253	0x3d2d8443	0.042362463
254	0x3dc03b80	0.09386349
255	0x3e119bb9	0.1421956
